momentum/w1.npy (npy, 2432 bytes, 1 tensors)

array f8 [16, 18]
0	0x0000000000000003	1.5e-323
1	0x0000000000000003	1.5e-323
2	0x0000000000000003	1.5e-323
3	0x0000000000000003	1.5e-323
4	0x0000000000000003	1.5e-323
5	0x0000000000000003	1.5e-323
6	0x0000000000000003	1.5e-323
7	0x0000000000000003	1.5e-323
8	0x0000000000000003	1.5e-323
9	0x0000000000000003	1.5e-323
10	0x0000000000000003	1.5e-323
11	0x0000000000000003	1.5e-323
12	0x0000000000000003	1.5e-323
13	0x8000000000000003	-1.5e-323
14	0x0000000000000003	1.5e-323
15	0x0000000000000003	1.5e-323
16	0x0000000000000003	1.5e-323
17	0x0000000000000003	1.5e-323
18	0xb0f35ed5597d0b97	-6.852051368134296e-73
19	0xbf715fe25fa24431	-0.004241832992321768
20	0xbf5ced87c3969362	-0.0017656160183403204
21	0x3f6eda9dc6cfb52c	0.003766353757319726
22	0xbf8b04b2193a1cac	-0.013192550082079833
23	0x3f7aab595c71030a	0.006511067454142214
24	0xbf8aa0acbf910941	-0.01300177535643299
25	0x3f849e362c1c6a99	0.01006738969913572
26	0x3f620d829339538d	0.0022037077231211234
27	0x3f7489e78051d9de	0.005014328290704443
28	0xbf2f73169660c840	-0.00023994112706443756
29	0xbf7d59e514a40f28	-0.007165808531002495
30	0x3ecb429feb1931ad	3.2496753526232726e-06
31	0x3f51be5d98fddf4a	0.001082984355859256
32	0x3f7d641a1c4d0dd3	0.007175542826022024
33	0x3f68d5083329f883	0.0030312690881251782
34	0xbf64832c876d2de1	-0.0025039548594685134
35	0xbf8030879025df3e	-0.007905062758012723
36	0xb0e44d971871b0fb	-3.590981215364372e-73
37	0xbf772db72f5ce687	-0.005658832136583697
38	0xbf70b3b4e6c36aac	-0.004077631612939097
39	0x3ef95fa06656e1bc	2.4198094612267024e-05
40	0xbf85d6d7ce96cba5	-0.01066368674478275
41	0xbf6605af67e74ac5	-0.0026882577796894813
42	0xbf90ac541f73500c	-0.01628238145788434
43	0xbf5c235075478c00	-0.0017174039577347866
44	0xbf541310d3537e7f	-0.0012252487479641747
45	0xbf7c4df0862b3fa6	-0.0069102664444499525
46	0xbf72acc7b8f90390	-0.004559307256898473
47	0xbf73eb1da7f5ab56	-0.004862895816908649
48	0xbef0817108487616	-1.5740996348259378e-05
49	0xbf644019dcf1d484	-0.002471972001837632
50	0xbf1dafe9ea6e7192	-0.00011324753960057488
51	0xbf5df45f5eceb71a	-0.0018282824851029778
52	0xbf76c4adbb27455e	-0.0055586611146777026
53	0xbf700965adaad982	-0.003915211850360813
54	0x310064fdd3dc0de1	1.159869636446476e-72
55	0xbf65577b63d32bac	-0.0026051912269386603
56	0xbf18a3d4c2cd20c0	-9.399400796639406e-05
57	0xbf7459f52cf49fa1	-0.004968602864472788
58	0x3f84ec2e1e847a98	0.010216102892227227
59	0xbf7cfb23d76c7a68	-0.007075443273406458
60	0x3f7d61428ddfcd34	0.007172832467392799
61	0xbf85ddd2273661e6	-0.01067699606100887
62	0xbf752b360b4e3f11	-0.005168162450800443
63	0xbf921605e6955c26	-0.01766213626737225
64	0x3f327355aca44080	0.00028153268489550937
65	0xbf610cc08419f19a	-0.002081275947430861
66	0xbf26864c550bbaee	-0.00017184907712627185
67	0x3f27d715cde03d60	0.0001818861118753996
68	0xbf803576c8e67dd7	-0.007914474493019448
69	0xbf7da45412c06981	-0.007236793910147533
70	0x3f605897e2c07a94	0.001995369579176407
71	0xbf32782c71f19337	-0.00028182110867751596
72	0x30e05dfbc517bea1	2.894832283445101e-73
73	0xbf772396459d9b4b	-0.0056491727826600375
74	0xbf619f138680e6f1	-0.002151048789554071
75	0xbf62dabd8975e963	-0.00230156916557893
76	0xbf6980120930bb64	-0.0031128265632313513
77	0xbf62743ced98ea56	-0.0022526922228085873
78	0xbf69c7f52c5f910e	-0.003147105077902285
79	0xbf769c50039a95d5	-0.0055201650190261535
80	0xbf68f86d491b56b8	-0.003048146675477561
81	0xbf6bc3dbfd64526c	-0.003389291446305889
82	0xbf762e232ec239f2	-0.005415093834143724
83	0xbf6497c6856d921c	-0.00251377843544477
84	0xbf14997c2a91994a	-7.858105040412403e-05
85	0xbf51991a983f7bb2	-0.001074100467114408
86	0xbf7451f73349c85b	-0.00496098101267436
87	0xbf531759d12882fb	-0.0011652352446917525
88	0xbf6718908d618202	-0.0028193305288797274
89	0xbf37f24180434163	-0.0003653917231192431
90	0x30d80c432eb2bd03	2.1266608010468332e-73
91	0x3f65b2fee25cb4e0	0.00264882833552936
92	0x3f5d390169180302	0.001783610703910366
93	0x3f2253bd6dda8e5e	0.0001398247467721989
94	0x3f71c8ae895a9422	0.0043417756875543684
95	0x3f5111e8a507ed8a	0.0010418674393112026
96	0x3f77cea51a1b78b9	0.005812306336990308
97	0x3f5e4bfb27ff9335	0.0018491699884119587
98	0x3f4b7c2085350ee8	0.0008387717047430828
99	0x3f5d4306f7de6b15	0.0017860000657267717
100	0x3f69a00d9c4e7f7c	0.0031280771094798748
101	0x3f5657ee8ce92932	0.0013637380212850434
102	0x3eaa5cc7ad22c3fb	7.856613939619502e-07
103	0x3f55b0fe905c9220	0.0013239370322902858
104	0x3f5666fa8b4ce1bb	0.001367325469983623
105	0x3f32cd7aaabc5c35	0.00028690571592576995
106	0x3f652f0ec244ce3e	0.002585915399458987
107	0x3f1d72a0aa4f32cd	0.00011233430502883696
108	0x0000000000000003	1.5e-323
109	0xbf5065726fb718b2	-0.0010007493536803688
110	0xbf79662d03e02969	-0.006200958099734735
111	0xbef8229a3afad9d7	-2.3017087811461265e-05
112	0xbf86232da1693580	-0.01080928467595288
113	0xbf84152a73caf8ba	-0.009805995615689834
114	0xbfa011736697acbf	-0.03138313891744237
115	0xbf75626920db164c	-0.005220804841604098
116	0xbf4b24bf29cd003a	-0.0008283551611398883
117	0xbf9d3ea3f90bd52e	-0.028559267116141367
118	0xbf675c8d0780db75	-0.002851748893614776
119	0xbf286c2516b687fa	-0.00018632843726346088
120	0xbf195781a29e8167	-9.667137842806415e-05
121	0xbf773217c0cebd74	-0.005663006578216712
122	0xbf43fa3910c92103	-0.0006096628799890095
123	0xbf823f71663a5b6d	-0.008910070354699784
124	0xbf80777d6839bd90	-0.008040408843242003
125	0xbf327d7686b1a4d1	-0.00028213638024128263
126	0x30f5c66e489107e2	7.702675830784966e-73
127	0x3f84c353bf0885dd	0.010138181941388541
128	0x3f6398a0e1f9ba5f	0.002392114852958912
129	0x3f5bf3fe00974317	0.0017061214915551953
130	0x3f71139ebbd95116	0.00416910176644005
131	0x3f5a27cfaf76eb6e	0.0015964058091941474
132	0x3f45ad79f640bd56	0.0006615491406644451
133	0x3f7a344a3c4a323f	0.006397523863267695
134	0x3f73642174eac348	0.004734163942587362
135	0x3eed1c1413ca4315	1.3880577733689452e-05
136	0x3f7dfbb94c5b322c	0.007320140668252633
137	0x3f7bbe5623b9bbb3	0.006773315889957598
138	0x8000000000000003	-1.5e-323
139	0x3f5da6f9be25c06a	0.0018098296064543947
140	0x3f819e084b6aa8f8	0.008602204133542277
141	0xbf22ca891daaca47	-0.00014336513307496216
142	0x3f6adebf2476c717	0.003280042004654936
143	0x3f321b5343e2dd88	0.0002762869152194915
144	0x8000000000000003	-1.5e-323
145	0xbe8b829cc40bf609	-2.049669962852376e-07
146	0xbe6232b2b26b930f	-3.389648943976783e-08
147	0xb95b5b24df595c6a	-2.1074319997002167e-32
148	0xbe539de895168b77	-1.8269596784751572e-08
149	0xb79a8ee0f7a218cd	-7.621806713246737e-41
150	0xbe653935787eac93	-3.95317974460708e-08
151	0x3b83e4630a855bdd	5.265404622706714e-22
152	0x3b8dcab4ef1a905d	7.885829975764243e-22
153	0x8000000000000003	-1.5e-323
154	0xbe6850dc5427b234	-4.529182230984118e-08
155	0xbe8b85c24a68389b	-2.0505857385760328e-07
156	0x8000000000000003	-1.5e-323
157	0xb752c2089f5a36bc	-3.364541211778251e-42
158	0x3b992324a3f6c98f	1.3307564083922923e-21
159	0x8000000000000003	-1.5e-323
160	0xbe3f823bb16fb80f	-7.336196337032228e-09
161	0xbe702490e4f39c75	-6.013675001339671e-08
162	0x31023e033f167d7d	1.2905925334703727e-72
163	0x3f6e60b9e053ca60	0.0037082319637360833
164	0x3f7215dca239e26c	0.0044153803352108105
165	0xbf656a9a08e8821b	-0.002614308213438455
166	0x3f90bcea9c0ad4d2	0.016345659040514722
167	0xbf548a6b214fb7b4	-0.0012537046616176552
168	0x3f98502e4759ce87	0.023743365387828532
169	0xbf60eee7b60e13c6	-0.002067043839306201
170	0xbf4aada8faba3f7a	-0.0008141589255092751
171	0x3f4b2384e9934aae	0.0008282088266703036
172	0x3f76ece0aa051bbe	0.005596997827814696
173	0x3f59352bef4e09a9	0.001538556008399009
174	0xbb747633e0d4aace	-2.708087297627002e-22
175	0x3f70c47cc8a3ba79	0.0040936350217025625
176	0xbf492065642e544e	-0.000766801364408773
177	0xbf4cebba05e0afec	-0.0008825929942353184
178	0x3f803b465305ef3d	0.007925557526270327
179	0xbf2311b1e3b7f30d	-0.00014548584464071264
180	0xb0d069b97197bba3	-1.4514720020037665e-73
181	0xbf641305e8eeaa76	-0.002450477164037064
182	0xbf5cca7ed800ac36	-0.0017572630604358991
183	0xbf43675cc8b39242	-0.0005921557471109745
184	0xbf6f5d1b9a58a8dc	-0.00382857695764925
185	0xbf5cbe029c504c26	-0.0017542863363402355
186	0xbf76f6ca09f174a6	-0.005606450285168629
187	0xbf6386f664138de0	-0.0023836910555574548
188	0xbf4b829f2ee58a4d	-0.0008395459424657775
189	0xbf676f104c4a463b	-0.002860576469466717
190	0xbf68be319bb2c5e1	-0.0030203789625253695
191	0xbf4e798fc7f828f4	-0.0009300186210919035
192	0x3ec5e08b76d17490	2.607956892704414e-06
193	0xbf57483de850ea48	-0.0014210323872833209
194	0xbf5a9980d85a8a22	-0.001623512101482157
195	0xbf472e5e3e2d0e7e	-0.0007074318094528324
196	0xbf654419be6f4d99	-0.002595949440981915
197	0xbef466c98bebd23d	-1.9456398827127073e-05
198	0x8000000000000003	-1.5e-323
199	0x0a74af5fd967b39b	2.690669997426483e-258
200	0x0a5c1c81f2a86ff2	9.141670449693307e-259
201	0x0a5946643f3ab0ed	8.219290634966979e-259
202	0x0a25e89106c00232	8.905650752595509e-260
203	0x0a74c9f31a59ab27	2.704173314464682e-258
204	0x0000000000000003	1.5e-323
205	0x0a5aaa28afcdd12b	8.671219262151134e-259
206	0x0a692e1860f20b18	1.6376854295358391e-258
207	0x8000000000000003	-1.5e-323
208	0x0a650bfb3d3040c3	1.3688625940977548e-258
209	0x0a76e5ff8b64ac22	2.978581213150337e-258
210	0x8000000000000003	-1.5e-323
211	0x0a2ce7f83767c3d6	1.1750158385028145e-259
212	0x0a72467de17d8783	2.3772213883735305e-258
213	0x0a4f53d360f520ce	5.0937626680286726e-259
214	0x0a5b1a52130fa1a3	8.813697403938379e-259
215	0x0a509ee6bcb87fb0	5.40496970907822e-259
216	0x0000000000000003	1.5e-323
217	0x3f402bbef51aef4f	0.0004934961709390592
218	0x3f4118e75415c469	0.0005217675717813622
219	0x3640f2391e787933	2.319009932566908e-47
220	0x3f455029122ed238	0.0006504250089763358
221	0xa01b6e509cd7e5d8	-5.114728241754179e-154
222	0x3f56d3c778181d4e	0.0013932655277829223
223	0x3f494186a85773a3	0.0007707507617699016
224	0x3f39f51358129a6e	0.00039607736841632587
225	0x3f34203f7ec1f9d9	0.0003070979134988362
226	0x3f270d7d34014d8c	0.0001758780799741951
227	0x3f05506cf206aa7f	4.065353846568076e-05
228	0x0000000000000003	1.5e-323
229	0x3f392969cff80e3e	0.0003839381533625486
230	0x3f335d2ccec8c203	0.00029547065676907585
231	0x3f25ace7ae44397c	0.0001653702557935058
232	0x3f43c13c4486335f	0.0006028694415803718
233	0x13a92010ce2db8eb	5.8307389037778415e-214
234	0xb0c976ea0af627cb	-1.1259688416882031e-73
235	0x3f742a352d338ed7	0.0049230649194417974
236	0x3f5870ef17e9ce4c	0.0014917693039508016
237	0x3f627cfe53ce0c8b	0.002256867154245839
238	0x3f55b21cf1a7c935	0.0013242037444994418
239	0x3f5feec94e8c153d	0.0019490209471667152
240	0xbf51116e41e15728	-0.0010417534572488372
241	0x3f78633699b73a01	0.005953992159858591
242	0x3f6837653df63973	0.0029561021216927773
243	0xbe7280047214e4a8	-6.891812322642777e-08
244	0x3f75cc72e7a16e9e	0.00532193073930967
245	0x3f57bf4149cc40ea	0.0014494073468008192
246	0x8000000000000003	-1.5e-323
247	0x3f5200ffe52494d5	0.0010988711333735264
248	0x3f775b21bac77a0d	0.0057021443903679915
249	0xbed42b2c66f8586c	-4.8085799871003475e-06
250	0x3f61f6a184e3a7ec	0.002192798106183771
251	0xbf561c2cff75240b	-0.0013494910652573934
252	0xb0d4db7b765014f0	-1.844506756628969e-73
253	0xbf66eb14a111cc1b	-0.002797642032015724
254	0xbf4260fb3775985a	-0.00056087747990997
255	0x3f3e251b07dc10a9	0.00045997533730735924
