momentum/w2.npy (npy, 512 bytes, 1 tensors)

array f8 [3, 16]
-1.5e-323 0.06552911833263304 0.012168146985909341 0.006891543657178964 0.008428272775911877 0.004213803562172054 0.003975337471571061 0.013799775272721146
9.90729268392663e-08 0.01602113443744202 0.007121469725514967 7.424507705581548e-260 2.6902656441930183e-05 0.0021134777791328766 0.0296488648460168 0.001505016664395637
1.5e-323 -0.012566047599764823 -0.006064093082497654 0.01411808288813253 0.013237976080380838 0.0024931267806502025 0.03213635014330824 0.018728588985322564
-1.0142905762704978e-07 0.02008830280986721 -0.0011188741566436596 -6.703116181549312e-260 2.2821085588067812e-05 0.003266866357379367 -0.001584689144613973 -0.00041645019863030823
1.5e-323 -0.01478639030189442 -0.008246315701329821 -0.00983806882979281 -0.007362489134796119 -0.0022009108871631046 -0.030133587590513294 -0.007971228654420296
5.163314411430019e-09 -0.012080302204904258 -0.005125271053469815 7.939146668401869e-262 -2.7774814191457034e-05 -0.0013970102444847267 -0.010252293319811753 0.0002322559985569484
00000000: 0300 0000 0000 0080 b5a3 2c2c 84c6 b03f
00000010: 5ef5 db0a 9deb 883f b04e 06aa 4e3a 7c3f
00000020: d076 799f d742 813f 885a dc47 7e42 713f
00000030: 6637 e586 7148 703f c56b e87b 0e43 8c3f
00000040: bb54 655c 3d98 7a3e 2085 d021 d867 903f
00000050: 79ef 20f9 662b 7d3f b0aa 9826 c743 220a
00000060: 3b27 3779 a035 fc3e 4b7d 26be 4850 613f
00000070: dd37 82a3 455c 9e3f 4ffa 9f56 7fa8 583f
00000080: 0300 0000 0000 0000 6306 d95b 3abc 89bf
00000090: 70f4 8197 a9d6 78bf b841 4b02 f1e9 8c3f
000000a0: 57cb a412 831c 8b3f 5007 9b3f 776c 643f
000000b0: 59b2 c1f9 2c74 a03f 78cc c454 962d 933f
000000c0: 9a3b 22da 263a 7bbe eaef 662e 0792 943f
000000d0: 74db 4ffa e554 52bf f696 d576 767d 208a
000000e0: c69c 660f fded f73e db85 4a85 1dc3 6a3f
000000f0: 3c76 3a03 abf6 59bf 349d c8fb df4a 3bbf
00000100: 0300 0000 0000 0000 3623 2eb6 5348 8ebf
00000110: 3a64 ffc1 71e3 80bf 18be 093f fb25 84bf
00000120: 2153 d120 2128 7ebf da4e 0409 a507 62bf
00000130: f880 d9d4 56db 9ebf 2292 0933 3853 80bf
00000140: eebe bfcd 1f2d 363e e6b8 2ab7 8ebd 88bf
00000150: 73b3 ec78 3cfe 74bf b418 ae68 daff b809
00000160: 40ee 9ab2 be1f fdbe b9b8 fb53 7ce3 56bf
00000170: 9e06 2484 27ff 84bf 5474 11d6 3771 2e3f
